classifier.summary()
_________________________________________________________________
Layer (type)                 Output Shape              Param #   
=================================================================
conv2d_123 (Conv2D)          (None, 62, 62, 32)        896       
_________________________________________________________________
max_pooling2d_96 (MaxPooling (None, 31, 31, 32)        0         
_________________________________________________________________
dropout_128 (Dropout)        (None, 31, 31, 32)        0         
_________________________________________________________________
conv2d_124 (Conv2D)          (None, 29, 29, 64)        18496     
_________________________________________________________________
max_pooling2d_97 (MaxPooling (None, 14, 14, 64)        0         
_________________________________________________________________
dropout_129 (Dropout)        (None, 14, 14, 64)        0         
_________________________________________________________________
conv2d_125 (Conv2D)          (None, 12, 12, 194)       111938    
_________________________________________________________________
max_pooling2d_98 (MaxPooling (None, 6, 6, 194)         0         
_________________________________________________________________
dropout_130 (Dropout)        (None, 6, 6, 194)         0         
_________________________________________________________________
flatten_29 (Flatten)         (None, 6984)              0         
_________________________________________________________________
dense_54 (Dense)             (None, 194)               1355090   
_________________________________________________________________
dropout_131 (Dropout)        (None, 194)               0         
_________________________________________________________________
dense_55 (Dense)             (None, 4)                 780       
=================================================================
Total params: 1,487,200
Trainable params: 1,487,200
Non-trainable params: 0
_________________________________________________________________


history.history['val_precision_cat']
Out[573]: 
[… ?history.history['val_acc']
Out[574]: 
[… print(classification_report(test_set.classes, y_pred,target_names=test_set.class_indices.keys()))
…
